lemma.model_02.npy (npy, 5488 bytes, 1 tensors)

array (column-major) f8 [1, 676]
0	0xbfbdb2c46bb97c13	-0.11600902204507717
1	0xbfb2bd7274750fba	-0.07320323317713831
2	0x3fafdb8f10d4e4af	0.062221976093903
3	0xbf9d7c24bbdc7a60	-0.02879388233770397
4	0x3fa91e2055198f86	0.049057970417179894
5	0x3facda482252979a	0.05635285777070394
6	0xbfc689dd4bd85a39	-0.17608228877425505
7	0x3fc3e6c332ef5f82	0.15547981249869386
8	0xbfbb3c3b25f226ce	-0.10638780285276114
9	0x3fc0ea02b2916445	0.13214143485200416
10	0xbfac6db4b0c7ac57	-0.05552448900183354
11	0xbfb2d0a96dd8debd	-0.07349642688574938
12	0xbfab638bd3d675f8	-0.05349385224256403
13	0xbfb7d0402affc525	-0.0930214028337742
14	0x3f3c744ca890c540	0.00043417808098230107
15	0x3fc5a87b758b14b4	0.169204170602972
16	0xbfa7c3f6d634baec	-0.046416963241758896
17	0x3fca1559c2c62742	0.2037765694661236
18	0xbfd2644aa84f2824	-0.2873713153500168
19	0x3fb11aa53441d0eb	0.06681282544906579
20	0x3fa0ad1e8955b759	0.03257079531145619
21	0x3fad86da90a9dfe8	0.0576694776145244
22	0xbfc3b74f491d8346	-0.15403166837770693
23	0x3fbe2eb27d9831e5	0.11790004316589593
24	0xbfbe37b980a87f56	-0.11803779021329083
25	0x3fa500dea6dd5c72	0.04102226054117687
26	0x3fcba2327a899094	0.21588736518163343
27	0xbfc70f511c594681	-0.18015493282523568
28	0x3fbd69c9f9400bd9	0.11489546141824238
29	0xbfa12434eb3c8399	-0.033479360309008395
30	0xbfd1cae5cb8bfa46	-0.27800888898483256
31	0x3fb1d17852ca057e	0.06960250874728577
32	0xbf7d50c6f32acbae	-0.0071571132163396455
33	0x3fc10c47956b6326	0.13318724437592627
34	0x3fc7c464f594a4ac	0.18568098059885096
35	0xbfce1790cd0736f1	-0.23509416590825752
36	0xbfa648fafd150a0c	-0.04352554644949089
37	0xbfb4a073eca9bc05	-0.08057331588655366
38	0xbfb241f4d446bab1	-0.07131891424681204
39	0x3fca08db65cad2ac	0.2033952948601344
40	0xbfcfd10f36eab210	-0.2485674875400865
41	0x3fbdea9a98f374d0	0.11686102136760046
42	0xbfaa43c257619fdf	-0.05129821125666444
43	0xbfb042f551e72fa6	-0.06352170228563966
44	0x3fb6df96b636db8c	0.08934919308272365
45	0x3fcc77a1b775ae0f	0.22240086992256677
46	0x3fb957d2d0d898be	0.09899633024960772
47	0xbfd325e4a1d7e9c0	-0.2991878109457069
48	0xbfa648fafd150a0c	-0.04352554644949089
49	0xbf84776b56cf5da4	-0.009993399225932738
50	0xbfb2118681cfd034	-0.07057991666062052
51	0xbfac501ef22696c6	-0.05529877382222774
52	0xbfa3afa790d4408e	-0.03844951289113495
53	0x3f96f7b9b4dac38b	0.02242937246655034
54	0x3fca08db65cad2ac	0.2033952948601344
55	0xbfcfd10f36eab210	-0.2485674875400865
56	0x3fbdea9a98f374d0	0.11686102136760046
57	0xbfaa43c257619fdf	-0.05129821125666444
58	0x3fa6e927bf0de20e	0.04474758345799411
59	0x3f8f141090e0a33b	0.015174989148435727
60	0xbfbf9a0b438a353a	-0.12344427489207002
61	0x3fb6df96b636db8c	0.08934919308272365
62	0x3f8fd5eb499e9042	0.015544737037835547
63	0x3fca7a4302dbc581	0.2068561328847345
64	0x3fd0cbb166945d68	0.26243243234190183
65	0xbfc4eb7964bc6e63	-0.16343610209229373
66	0xbfbe2423661934ca	-0.1177389263404677
67	0x3fbd5e3be3125fde	0.11471914571518435
68	0xbfb3e240fd4497d9	-0.07767110999392858
69	0xbfa83dd69bfe84ff	-0.047346788923514176
70	0xbfae901c0dca0efd	-0.05969321888281163
71	0x3fbe477a3b41df17	0.1182781595870178
72	0xbfbe4f8944e3e2b4	-0.1184011262120162
73	0x3fa5176e486a5355	0.041194387759935815
74	0xbfc3860c66618b28	-0.15252833365510665
75	0x3fb8bffeaac99131	0.09667960805524413
76	0x3fbccbd4a0e3cb73	0.11248520782446096
77	0xbfc93f463af04169	-0.19724347951752044
78	0x3fa47feb96e87d12	0.04003845421925169
79	0xbfab0bbaff10a5a8	-0.05282387126528515
80	0x3f87a2b07578b010	0.011540773949569455
81	0xbfa156fa45f5b89e	-0.03386671165468268
82	0x3fcf072748878071	0.24240580598325637
83	0xbfc2573c0cbeb79a	-0.14328718778909605
84	0x3fb531211277d3f5	0.08278090191727457
85	0xbf7da6f66b9f2588	-0.007239306049038226
86	0x3fb3c5c1590cc361	0.0772362558752895
87	0xbfc1c0554c4b5a74	-0.13868204331693657
88	0xbfc1b8a2d2502a5a	-0.13844714421459764
89	0x3fa3a09284e6f0ac	0.038334444735910495
90	0x3f620f79b0b9905a	0.0022046448482786864
91	0xbfbf782b19af5d36	-0.12292737366748416
92	0x3f95643d4f5e2f70	0.020890195817215795
93	0x3fbb2fa9010d0b96	0.10619598651559978
94	0xbfcd624d339c809e	-0.2295624258049473
95	0xbfb09eefcbec59ba	-0.0649251816615565
96	0x3f4aa16739106000	0.0008126977937790159
97	0x3f8a45463f85a21a	0.012827442945039503
98	0x3fb2eb00e38abddd	0.07389836840842841
99	0xbf90689de3084945	-0.016024081212955527
100	0x3fa898e97f221b72	0.04804162671012237
101	0xbfb4dd241ab6f518	-0.08149934437001993
102	0x3fc10b90cecd7dff	0.13316545579708358
103	0x3faa9a79428230b4	0.05195979058143632
104	0xbfa5230ee1b279c0	-0.04128309731571589
105	0x3fb0b4595496b5a5	0.06525190653947861
106	0x3fb531211277d3f5	0.08278090191727457
107	0xbfb19558a643e3db	-0.06868509349068523
108	0xbfc1b8a2d2502a5a	-0.13844714421459764
109	0xbfb5176609b6185c	-0.08238828408329496
110	0x3f95643d4f5e2f70	0.020890195817215795
111	0xbfbf94f1662bf534	-0.12336643928934593
112	0xbfb09eefcbec59ba	-0.0649251816615565
113	0x3f8bef5cb316a816	0.013640140738818512
114	0x3fc42ba5d69ee016	0.15758202533265891
115	0x3fb86526598c0408	0.09529342352108483
116	0xbfb9147b658ecf24	-0.09796878079833654
117	0x3fb14a7bbc65649b	0.06754277562630977
118	0x3fa4fd09f2838193	0.040993033269617694
119	0xbfd93447f4203e41	-0.3938159832041244
120	0x3fc4561712102823	0.15887726194370186
121	0x3f611ad55f068c14	0.002087990513432123
122	0xbfc5b4aa31766bbf	-0.16957595267453304
123	0x3fd103af18df1433	0.2658498518833909
124	0x3fa084993f23989b	0.03226164718380283
125	0xbfb623b58dc5e859	-0.08648237906700852
126	0x3fb4e48edb1f1e36	0.08161251878402073
127	0xbfbacebc51a98714	-0.10471703523355941
128	0x3fad86b2e1dc01b0	0.057668294974067336
129	0x3fa2dcd7d14d670c	0.03684114866218921
130	0x3fa702f65589a8ba	0.044944475118272334
131	0xbfd0451ad5463d9d	-0.2542178232915491
132	0x3fa74429d3d2a979	0.04544192038277379
133	0x3fb82c0646171e01	0.09442176066578868
134	0xbfbf590e46b80c68	-0.12245263315712551
135	0x3fc9e97f08d4053d	0.20243823939385122
136	0xbfb908cb04482782	-0.09779042105233596
137	0xbfb08b0eb0a7b7a9	-0.06462184727544575
138	0x0000000000000000	0.0
139	0xbfafeec14e38c3e7	-0.06236843185286727
140	0x3fb39d2b0cbef4e7	0.07661694585017963
141	0xbfc38f885e09e3c3	-0.15281776992540416
142	0x3fc72fdf7f99da39	0.18114846926228426
143	0xbfa8655ca12c4953	-0.047648329424321866
144	0xbfbb906f4a4de383	-0.10767264904087707
145	0x3fc1adc0e14ebf5f	0.13811503411624934
146	0xbfb277b743e20223	-0.07213921935363792
147	0xbf788a6fd1e646b0	-0.005991398617327157
148	0x3f91081e2c876896	0.016632529704886233
149	0xbfa648fafd150a0c	-0.04352554644949089
150	0xbfc28189a0a19f27	-0.14457817405058757
151	0xbfbc1f99feedddbe	-0.10985720132690965
152	0x3f7610c176c3fa50	0.005387073248356147
153	0xbfa6e6c683250abc	-0.04472942686927214
154	0x3fcd4cca44534878	0.22890594803044784
155	0xbfc25aadda9ca39d	-0.1433923070374278
156	0xbfb2c879f546a268	-0.07337152708226713
157	0x3fb11aa53441d0eb	0.06681282544906579
158	0xbfc27537393d9773	-0.14420213980627813
159	0xbf6c8c7f4a5a0cd1	-0.00348496304906263
160	0x3fc5122c7a74561a	0.16461711863728185
161	0x3fc6bce82f639d90	0.17763998330995578
162	0xbfa2263934eb6c80	-0.035447871885218696
163	0xbfb7863c40a345df	-0.09189201906271859
164	0x3fc15f0601783de5	0.1357123858619921
165	0x3f9a2be808d853db	0.025558114566667327
166	0x3fc600a91155e478	0.17189515444241343
167	0x3f98bcaa319010bb	0.024157199168272508
168	0x3fd503c59c06734e	0.3283552192386211
169	0xbfbbdb0d54bf97fb	-0.10881121939709708
170	0xbfc81a12fd014456	-0.18829572061307215
171	0xbfa97e7f738e8f17	-0.04979322705847105
172	0x3fc810f2ea4e04e3	0.18801723900472841
173	0xbfd5eaa1cc52a626	-0.34244580224421595
174	0xbfa53526c0831d9a	-0.04142113780977326
175	0x3fc34f268bf202d1	0.1508529837920123
176	0x3fc1efd61e54a927	0.1401317260836745
177	0xbfc83b633c66affa	-0.18931236695550507
178	0xbfbaeda35736662a	-0.10518856887065256
179	0xbfc018636f9fddad	-0.12574427557386283
180	0xbfc3f111e05deba4	-0.15579436736501606
181	0x3fd8a5fde32cd005	0.38513133225501434
182	0xbfbafbd8eecbd27a	-0.10540538625702736
183	0xbfafd9af3112d2e0	-0.06220767473260991
184	0xbfb13491ca51ef0c	-0.06720839681105079
185	0xbfb8549668da5e45	-0.095040703390958
186	0x3fc61b49f7fbf9fe	0.1727077923641928
187	0xbfb2f49ca35ef099	-0.07404498089357715
188	0xbfb0eb6807ee27b7	-0.06609201615915948
189	0xbfb4dd241ab6f518	-0.08149934437001993
190	0x3fd3f28e3e8c6a26	0.31167942150355754
191	0xbfb402045a46f9f1	-0.07815577701601463
192	0xbf9f7499ffe2bad2	-0.030718237154981072
193	0xbfac501ef22696c6	-0.05529877382222774
194	0x3fc804b07c1766bd	0.18764310893202732
195	0xbfb198905081676d	-0.06873418775049141
196	0xbfb73c72bc7f925e	-0.09076611616144123
197	0x3fbbfbe40181ab6a	0.10931229626446073
198	0xbfad9b30bd61f9bc	-0.057824633710868295
199	0xbfbc69d3dcc9a245	-0.11098980083773664
200	0xbf5023040f5dcd9e	-0.0009849109314615588
201	0xbfb79a367379740d	-0.09219684905242805
202	0x3fc25b8dd052b1a2	0.1434190051271687
203	0x3fb92ca8bc414515	0.09833769413059586
204	0xbfc57822f140d520	-0.16772877483314463
205	0x3fc26ae651729664	0.14388731934484433
206	0xbfc036b293aab57b	-0.12666923723501697
207	0xbf751ccebdcd4d62	-0.00515442617764292
208	0x3fbc0d52e6263619	0.10957830542448511
209	0xbfb64f6478ef8530	-0.08714893295793469
210	0x3fca08db65cad2ac	0.2033952948601344
211	0xbfcfd10f36eab210	-0.2485674875400865
212	0x3fbdea9a98f374d0	0.11686102136760046
213	0xbfaa43c257619fdf	-0.05129821125666444
214	0x3fa5b285b292cf93	0.04237764172412919
215	0x3fd1083ec9f77e37	0.2661282512981162
216	0xbfc29e14d4f54f69	-0.14544926069595057
217	0x3fcf713198cf1668	0.24564189874051867
218	0xbfc65d3125c141be	-0.1747189936018127
219	0xbfa4a7d056f872bf	-0.04034281789447424
220	0xbfd012830e199939	-0.25112987877800524
221	0xbf8e6bbec3817610	-0.014853945103989324
222	0xbfb81b8743f1fcd5	-0.09417004975147177
223	0x3fced7055f82cb44	0.24093691981905796
224	0xbf9e626272491a9a	-0.029672182298123496
225	0x3fc2ab0055458515	0.1458435455670403
226	0x3f9b167fa97c77b2	0.02645301315271071
227	0xbf97d67b8b3417f4	-0.023279123660380166
228	0x3fa689a65ae12565	0.04401893481606115
229	0x3fd0f8b79f7478be	0.26518049785398634
230	0x3fb5416c7b427862	0.08302953728932175
231	0xbfc47b761f1b1ab2	-0.1600177432903443
232	0xbfb983125ed42da8	-0.09965624632984904
233	0x3fb49d8c7d00351c	0.0805290036371002
234	0x3fb548115875a20f	0.08313091668754445
235	0x3fb80dae40827d6a	0.09395875048584448
236	0x3fe109fe36d118cc	0.5324698515549016
237	0x3fd5bdccc17b7146	0.3397094621157247
238	0xbf7fece0fa63384c	-0.0077942646223175364
239	0xbfcd16590bd99d69	-0.22724450186363335
240	0xbfcea4016a835ee5	-0.23938005162084788
241	0xbfca3a58e40478c9	-0.20490561612763816
242	0xbfa7946093a53ad7	-0.04605390360176436
243	0x3fa545992c965f46	0.04154661816863707
244	0x3f9d1314746cf6b0	0.028393096548134877
245	0x3fc1b8e8f9359b33	0.13845550697734552
246	0x3fbd5262237eb310	0.114538320222618
247	0x3fa2a9220eba8954	0.03644663266938389
248	0xbfa65ea5ff60e03b	-0.043690860199092595
249	0xbfbf6a9597765a39	-0.12272009799776464
250	0xbfca51dafa28be20	-0.2056230279426794
251	0xbfd23fbce478d720	-0.2851402503177827
252	0xbfc108905186bb39	-0.13307384472633446
253	0xbfb1dda0732aefd4	-0.0697880059405514
254	0xbfb786dffec197d1	-0.09190177888521524
255	0xbfbe64714621c0d0	-0.11872013055995301
