tag.model_02.npy (npy, 11712 bytes, 1 tensors)

array (column-major) f8 [1, 1454]
00000000: 741b 6a19 71df bbbf 9fba e231 4bc3 acbf
00000010: 56d6 2286 b621 b43f f8cc 1860 d40b b73f
00000020: 3451 6c3d d392 c23f 28f9 c4b3 9a0a c0bf
00000030: f65a 903c 8852 c6bf 6d76 acc2 6144 d13f
00000040: bfe1 e45e eb45 c7bf c7e3 05d0 d96f d13f
00000050: a9f0 e373 7b8b c2bf 36ee a093 ab30 92bf
00000060: f2fa 7113 1a70 b73f d897 2e4a 3194 623f
00000070: c808 fee4 0d12 c7bf 6466 ce25 f112 c23f
00000080: 92c8 7c21 364f c1bf c341 c46a cf94 ba3f
00000090: 3a6f 3f01 b3d8 9cbf 6bba 9d62 8739 c83f
000000a0: 70eb 769f 2289 613f bfc1 51f8 23af c6bf
000000b0: 9ad3 cbfe 2535 b63f 6604 3354 41b4 a83f
000000c0: 1ce2 30ff c48c cabf 45d5 36dc e206 be3f
000000d0: d25a ef5c 5bbd d0bf 4d2b dca7 c7d2 d13f
000000e0: eb0e ae12 7ddf a33f f9a1 d91d 0d30 b0bf
000000f0: 5d17 530b 5a1d d03f d68f f031 a341 c9bf
00000100: 11a0 6b06 64db c0bf 645e 6546 cfd5 82bf
00000110: da2e c1b4 bb00 c8bf f434 effb 2e21 c83f
00000120: 0d41 961f c70b cd3f d50f 215a 2f3c bebf
00000130: 587a cf1d 1021 d73f f68a d1d7 66d2 adbf
00000140: b01f 4fc0 2941 c3bf 8620 134c 03ff b33f
00000150: c76a 4024 baa9 cfbf 9449 6bbd a9cc 8dbf
00000160: a91c 66db eeb4 afbf 4c08 c208 1ab4 a2bf
00000170: 54b5 8cb4 3f90 b93f b80d 6254 a1f9 ca3f
00000180: 5449 845b 441e d1bf 7008 a7c1 09bd 72bf
00000190: 3f16 5811 27ed c83f aac6 0f76 bf60 923f
000001a0: b0f2 4b76 a356 bb3f d190 b039 dfcd a73f
000001b0: f690 ddd6 0636 a73f 048e 57d7 3684 babf
000001c0: 98ad 663c 2a86 9dbf 7b3f ad48 9cab bcbf
000001d0: 68a2 ba46 65a9 83bf 8620 134c 03ff b33f
000001e0: c76a 4024 baa9 cfbf 9449 6bbd a9cc 8dbf
000001f0: 7b07 fc7d 05b5 9cbf bc07 dcd4 3661 73bf
00000200: b92f 9983 8adc 9dbf 41e8 136d 65b0 babf
00000210: 14e4 b268 5856 b13f da6f f259 23b2 93bf
00000220: 3950 098b c87c be3f 8cd3 8652 4e09 b03f
00000230: d4a3 1e2b faf4 c23f b753 555d ffad aabf
00000240: 4a73 38b7 f01b be3f f0a2 81fb a61b aa3f
00000250: 8a47 39af 46e7 b5bf 6e0a 2237 55dc b5bf
00000260: 0d4b 992a 853b b03f 2549 73e6 1717 c7bf
00000270: 3b37 8ffd 6f2f ac3f fb60 3fb5 a356 c3bf
00000280: 9c70 e00c b8ec aebf 3a10 671e c8f2 d0bf
00000290: 95d3 a4b4 733e 92bf a0f7 82a7 5b4f c83f
000002a0: 5e2c 5be6 ba29 bfbf 6c24 8920 f865 b1bf
000002b0: a097 736f b5f6 ae3f 8912 bb3e e6e5 cbbf
000002c0: a361 0288 0acc d43f 4ef1 b738 c52f bdbf
000002d0: 00f3 c7a3 4605 b53f 4011 45df db74 73bf
000002e0: b06c ddce 0c68 64bf f892 c823 f909 ba3f
000002f0: 9a89 2918 ed28 aebf 729a 4d82 9269 bc3f
00000300: e1b3 2f64 8e3d b23f 24c1 fbe1 a827 9fbf
00000310: 141b 2fc1 2dfa a43f 404a be84 4617 7dbf
00000320: 500b ab8e c639 603f 922b dfb6 1e69 873f
00000330: 8469 accc 618a c6bf ceac c589 9793 c1bf
00000340: a3a0 f08a 92f8 b8bf 9c89 6902 c878 883f
00000350: 4100 a4c3 d19f b73f d40b e911 82e2 aebf
00000360: d7e9 fcfc 58ab a4bf c982 21f6 cd26 b83f
00000370: 03a6 7345 92a6 87bf 7410 7277 2896 90bf
00000380: beba 866e b754 d53f 959f fd99 cd10 a0bf
00000390: 8fa3 c1f2 a42f b3bf f3ba 2241 0797 d1bf
000003a0: e289 f58c d6a9 7ebf ad0d 4962 79b6 7cbf
000003b0: 00f3 c7a3 4605 b53f 4011 45df db74 73bf
000003c0: 2cc6 7962 84a4 a43f 729a 4d82 9269 bc3f
000003d0: 5651 480c bbf0 b43f 90c4 683d 63fa 74bf
000003e0: 2a77 3ee1 cf13 c5bf ceac c589 9793 c1bf
000003f0: 766f a38a 79e9 b5bf e281 88f1 0940 d23f
00000400: 41c9 dd4b 1701 88bf 00ec 5e7b a07b c2bf
00000410: 06a6 126e 5a1b a83f f604 b6ba fc0f a83f
00000420: c7a2 f3c3 a1d0 cfbf 5b68 c2e3 2c46 c03f
00000430: a50f ffdf 41d7 b83f ecd7 554c dfa8 9fbf
00000440: 19c3 5225 7aa8 d83f f897 caf3 3635 ccbf
00000450: 43a0 933f c476 923f a424 76af 2b94 cc3f
00000460: f228 9ee2 f897 c3bf d5c8 cd10 14c7 bcbf
00000470: 5ace e95f 8bea b73f 2731 fdae 10d3 81bf
00000480: 0186 032c 5fec c1bf affa ee78 2cdb 9fbf
00000490: 8fde 6ee0 ad5a c3bf 2ab2 631b 6326 86bf
000004a0: 62c5 0ca3 8ad9 cc3f 5c4a 30a3 b0c6 a73f
000004b0: 9cca 29cc 6feb 88bf d404 00b4 8f6e bebf
000004c0: 2c39 9902 3bd9 a63f 6861 420a 42c3 a2bf
000004d0: accf 28c5 ba54 b6bf 88be d89e 50e9 cd3f
000004e0: d776 3827 419b b7bf 5cbf d39a bcec c63f
000004f0: cbae 6e93 39da bebf bff2 714e bd06 abbf
00000500: fd4d a7ca f0a6 9a3f a5d6 d6cd 672c d0bf
00000510: d59c ae19 7a54 b93f 4534 352f d767 ce3f
00000520: 7008 a7c1 09bd 72bf 3f16 5811 27ed c83f
00000530: aac6 0f76 bf60 923f b0f2 4b76 a356 bb3f
00000540: d190 b039 dfcd a73f 8a94 b0fd 6a5a d33f
00000550: b6fa 5131 5c62 d0bf 9b61 1334 11e2 cabf
00000560: 08a6 2124 f518 cfbf 73c6 c7f2 53bd c63f
00000570: b3f4 827b 4d34 cbbf 9286 cc37 5119 c03f
00000580: bfc1 51f8 23af c6bf de9f 1f98 0149 cd3f
00000590: d787 7c31 cc9c c5bf 7093 7a64 e20b cf3f
000005a0: 7025 da38 3b7c 92bf 2eab 0a10 02e1 c83f
000005b0: 985a 4184 e7b8 bb3f 5426 4dca 96ff afbf
000005c0: 36d8 6f14 c528 c8bf f015 bd2e 8bc0 9c3f
000005d0: 9af8 919c 23d5 77bf 0060 006d 6a13 5f3f
000005e0: 95b4 26de cb6e b43f 4de9 6edc 15a8 bb3f
000005f0: c6f8 40c1 e139 c5bf 7224 c155 22fb cc3f
00000600: 281d 03d2 15b5 d53f ca55 9d5a 59a6 bfbf
00000610: 66c0 1a90 99d4 cfbf 88ec d8d9 f942 cabf
00000620: 171e f410 d404 b5bf 0aba f775 1142 c13f
00000630: c808 fee4 0d12 c7bf 5431 96cf 8528 cc3f
00000640: 4a9f e9c3 6e24 d0bf d4d9 2ccd 50bc 87bf
00000650: d942 5923 8846 c53f 9275 0ac7 047f bd3f
00000660: 627f 6152 a843 d93f 0e7b 5746 a724 a23f
00000670: 826e bfaa ab54 b3bf f277 22d1 d4c3 c6bf
00000680: d58d d6db 03fa c6bf 5753 73bd 125a cd3f
00000690: 6a03 c62a 81f3 b8bf a247 eb66 ec37 b2bf
000006a0: 2eb7 08b9 0a3e b5bf f975 2657 de76 b73f
000006b0: 5d1c 22c2 8ca4 b9bf 13ba ed8e 34cd bdbf
000006c0: eb95 d1df 81d1 cabf a924 b7ea c519 bc3f
000006d0: 18e2 9090 2e67 cf3f cb26 0324 05e3 9cbf
000006e0: 7293 aaec 3ab0 c0bf 9e84 576f 3c36 90bf
000006f0: 27a6 c848 ecfa d23f 221f 21b7 def3 b3bf
00000700: 10db 709e 74e1 b5bf 98ad 663c 2a86 9dbf
00000710: 0000 0000 0000 0000 b51f 3d69 bb92 b9bf
00000720: 3017 896c bb62 aebf 35f0 9475 8382 94bf
00000730: e296 e2c4 4195 bcbf 2c98 268d 3482 9ebf
00000740: 70e2 984b 80d5 b03f cfac 2952 11c4 b0bf
00000750: a886 aaa0 f692 b23f 2c6d 1524 ae24 c7bf
00000760: fa56 d4d1 2cf3 c83f c3b7 6b1f a1c1 c5bf
00000770: f8c2 0561 c5c9 9ebf ec8b b069 6710 ab3f
00000780: 8252 6099 6619 96bf 4492 1dc9 1725 ba3f
00000790: 6c95 3086 01f2 9ebf 3b37 2922 b214 be3f
000007a0: 532f 8fab 0756 cdbf 87eb cfcb 4fa3 b4bf
000007b0: 7308 c7b5 4d8b c03f 28bb ed80 79b1 c23f
000007c0: e3a9 6dd2 83cc cbbf 89ac 69ad 06ad c23f
000007d0: 72db db0b 6cc2 c53f e441 3260 15a4 b23f
000007e0: 4ea4 b979 54ec bbbf 13e6 9d3a 475b c0bf
000007f0: ed7c 13bc 91a5 c03f e615 aa7a 3abf ba3f
-0.10887820120306718 -0.056177472915228004 0.07863941931540216 0.09002425523867774 0.14510574816871158 -0.12532361772350353 -0.17439368207188694 0.2697986985311676
-0.18182127126216405 0.27245183291193736 -0.14488166006765837 -0.017763787160431664 0.09155428862321083 0.002267929333771495 -0.18023847275987337 0.14120306344993871
-0.13522984156731305 0.10383316380126133 -0.02817039198985969 0.18925564112892643 0.002140586493366063 -0.17721986412972332 0.08674848051653186 0.04825023796866716
-0.2074209447907983 0.11729257465670624 -0.2615574271743927 0.27848998444158185 0.038814457445395543 -0.06323320368540654 0.2517914877502017 -0.19731559694730433
-0.131695273528067 -0.009196872077765046 -0.18752237630757557 0.18851268102154217 0.22692193071680614 -0.11810584974688194 0.3613930026166705 -0.05824586281302928
-0.15042611970988906 0.07810993773739669 -0.2473671605119618 -0.014550520032035753 -0.06192728450974389 -0.03653031689556538 0.09985731275511017 0.21074310894264925
-0.26747235238248845 -0.004574812041427831 0.1947373232543885 0.017947188931379067 0.10679074895956364 0.04649255351276483 0.045334066132257364 -0.10357992894528684
-0.028832111298169844 -0.11199356817564692 -0.009600440236071608 0.07810993773739669 -0.2473671605119618 -0.014550520032035753 -0.02803429204414652 -0.004731382546880821
-0.02916160991871639 -0.104254092340768 0.06772377544520253 -0.01923423038952863 0.119091543144635 0.06264199747859162 0.1481011114640568 -0.052108745711542274
0.11761383507878267 0.05099222011705773 -0.08556024339602977 -0.08539326282520118 0.06340820589074898 -0.18039225342233425 0.05504941911895719 -0.1510815272329252
-0.06039977223574164 -0.26481821984293996 -0.017816360378862212 0.1899218147208872 -0.1217305004494604 -0.06796217722252756 0.06047598824970568 -0.2179534727385042
0.3249536827293246 -0.11401016840676911 0.08211175440369445 -0.00475011718328161 -0.002491021171335449 0.10171467898960518 -0.05890599174451268 0.11098590546826317
0.07125177331882028 -0.030424727242405983 0.040971212226898285 -0.007102275336267783 0.0019806745598044753 0.011430969196131877 -0.17609808439085495 -0.1373166487422623
-0.09754291431511546 0.011949122022262774 0.0922824003828291 -0.060321869551010515 -0.04036977852088668 0.09434211024337026 -0.011548178429126038 -0.016197807588938365
0.3332956866606017 -0.03137819771546827 -0.07494574476880998 -0.27484303818611905 -0.007486188972821913 -0.00700995841595235 0.08211175440369445 -0.00475011718328161
0.04031766607375817 0.11098590546826317 0.0817982583033133 -0.0051216007764633 -0.1646671151947257 -0.1373166487422623 -0.08559379229285277 0.28515862071256326
-0.011720830919987992 -0.14439779304470335 0.04708368867552441 0.04699697283923314 -0.24855444019273973 0.1271415817362279 0.09703456610355816 -0.030917634042871997
0.3852830280766724 -0.22037398246646922 0.018031183605586653 0.22327180926757706 -0.15307532372782579 -0.11241269502878322 0.0934226140178053 -0.008703356113664086
-0.1400259938155131 -0.0311095188915213 -0.15120480974814085 -0.01081540515266351 0.2253888412611032 0.046437759323585154 -0.012167809885089746 -0.11887453217061089
0.04462608725281067 -0.03664595008121091 -0.08723037064993261 0.23368270641502797 -0.09221274573834691 0.17909963188094025 -0.12051734780714722 -0.05278579313833153
0.02602745282076845 -0.252710295691353 0.09894526602748795 0.23754396252698676 -0.004574812041427831 0.1947373232543885 0.017947188931379067 0.10679074895956364
0.04649255351276483 0.3023936726988913 -0.2560034257548226 -0.21002402346381363 -0.24294914497595266 0.1776528296900782 -0.21253365069234106 0.12577262138897943
-0.17721986412972332 0.22879047325045482 -0.16884758392649132 0.24255018144790652 -0.01805202993867766 0.1943667009666909 0.10829016665352709 -0.062496864504805544
-0.18874419687171134 0.028078245856951456 -0.005818499667951249 0.001896718913490858 0.07981561826336965 0.10803352958365516 -0.16582891403408534 0.22641400515775306
0.3391775656604801 -0.12363203489561339 -0.24867553268768744 -0.20516894471242986 -0.08210492528825629 0.13482874164715525 -0.18023847275987337 0.21998665462559563
-0.2522236741265159 -0.011589652310800704 0.166214959392639 0.11521940097232733 0.39475448651318434 0.03543589337981788 -0.0755107204308221 -0.17785129748966672
-0.17950485452921208 0.22931131601822116 -0.09746558470034264 -0.07116582405731589 -0.08297793404991857 0.09165753963176106 -0.10016708125668701 -0.11641243447750353
-0.20951865605017814 0.10976826649052164 0.24533636149296068 -0.028209762881295213 -0.1303781180951336 -0.01583189420296504 0.29656512363235027 -0.07793991061145936
-0.08547142856773982 -0.028832111298169844 0.0 -0.0998952037745074 -0.05934701633354533 -0.02002911954080862 -0.1116524797131109 -0.029793568720968874
0.06575776906618969 -0.06549175506522718 0.07255498335373523 -0.18080689203166267 0.19492111440256804 -0.16997159990518015 -0.030066570326598957 0.05285952725559881
-0.02158127127775567 0.1021284929279967 -0.030220054450315656 0.1175032933617474 -0.22918792607230873 -0.08061693883784758 0.12925120712140234 0.14604109568923573
-0.21717880034277845 0.14590533702298483 0.16999579028171358 0.0728162155012409 -0.10907485935025926 -0.12778559076450388 0.13005277331738033 0.1044804143403649
